…
ng.py
C:\Users\Alexander\AppData\Local\Programs\Python\Python36\lib\site-packages\h5py\__init__.py:36: FutureWarning: Conversion of the second argument of issubdtype from `float` to `np.floating` is deprecated. In future, it will be treated as `np.float64 == np.dtype(float).type`.
  from ._conv import register_converters as _register_converters
Using TensorFlow backend.
_________________________________________________________________
Layer (type)                 Output Shape              Param #   
=================================================================
conv2d_1 (Conv2D)            (None, 29, 29, 75)        1275      
_________________________________________________________________
max_pooling2d_1 (MaxPooling2 (None, 14, 14, 75)        0         
_________________________________________________________________
dropout_1 (Dropout)          (None, 14, 14, 75)        0         
_________________________________________________________________
conv2d_2 (Conv2D)            (None, 11, 11, 100)       120100    
_________________________________________________________________
max_pooling2d_2 (MaxPooling2 (None, 5, 5, 100)         0         
_________________________________________________________________
dropout_2 (Dropout)          (None, 5, 5, 100)         0         
_________________________________________________________________
conv2d_3 (Conv2D)            (None, 2, 2, 125)         200125    
_________________________________________________________________
max_pooling2d_3 (MaxPooling2 (None, 1, 1, 125)         0         
_________________________________________________________________
dropout_3 (Dropout)          (None, 1, 1, 125)         0         
_________________________________________________________________
flatten_1 (Flatten)          (None, 125)               0         
_________________________________________________________________
dense_1 (Dense)              (None, 500)               63000     
_________________________________________________________________
dropout_4 (Dropout)          (None, 500)               0         
_________________________________________________________________
dense_2 (Dense)              (None, 70)                35070     
=================================================================
Total params: 419,570
Trainable params: 419,570
Non-trainable params: 0
_________________________________________________________________
None
Train on 4070 samples, validate on 370 samples
2018-04-13 00:14:28.946117: I C:\tf_jenkins\workspace\rel-win\M\windows\PY\36\tensorflow\core\platform\cpu_feature_guard.cc:137] Your CPU supports instructions that this TensorFlow binary was not compiled to use: AVX
…
