…
C:\Users\Alexander\AppData\Local\Programs\Python\Python36\lib\site-packages\h5py\__init__.py:36: FutureWarning: Conversion of the second argument of issubdtype from `float` to `np.floating` is deprecated. In future, it will be treated as `np.float64 == np.dtype(float).type`.
  from ._conv import register_converters as _register_converters
Using TensorFlow backend.
(28, 28)
_________________________________________________________________
Layer (type)                 Output Shape              Param #   
=================================================================
conv2d_1 (Conv2D)            (None, 24, 24, 75)        1950      
_________________________________________________________________
max_pooling2d_1 (MaxPooling2 (None, 12, 12, 75)        0         
_________________________________________________________________
dropout_1 (Dropout)          (None, 12, 12, 75)        0         
_________________________________________________________________
conv2d_2 (Conv2D)            (None, 8, 8, 100)         187600    
_________________________________________________________________
max_pooling2d_2 (MaxPooling2 (None, 4, 4, 100)         0         
_________________________________________________________________
dropout_2 (Dropout)          (None, 4, 4, 100)         0         
_________________________________________________________________
flatten_1 (Flatten)          (None, 1600)              0         
_________________________________________________________________
dense_1 (Dense)              (None, 500)               800500    
_________________________________________________________________
dropout_3 (Dropout)          (None, 500)               0         
_________________________________________________________________
dense_2 (Dense)              (None, 10)                5010      
=================================================================
Total params: 995,060
Trainable params: 995,060
Non-trainable params: 0
_________________________________________________________________
None
2018-02-04 03:01:09.948795: I C:\tf_jenkins\workspace\rel-win\M\windows\PY\36\tensorflow\core\platform\cpu_feature_guard.cc:137] Your CPU supports instructions that this TensorFlow binary was not compiled to use: AVX
…
