…
ng.py
C:\Users\Alexander\AppData\Local\Programs\Python\Python36\lib\site-packages\h5py\__init__.py:36: FutureWarning: Conversion of the second argument of issubdtype from `float` to `np.floating` is deprecated. In future, it will be treated as `np.float64 == np.dtype(float).type`.
  from ._conv import register_converters as _register_converters
Using TensorFlow backend.
_________________________________________________________________
Layer (type)                 Output Shape              Param #   
=================================================================
conv2d_1 (Conv2D)            (None, 46, 46, 75)        1950      
_________________________________________________________________
max_pooling2d_1 (MaxPooling2 (None, 23, 23, 75)        0         
_________________________________________________________________
dropout_1 (Dropout)          (None, 23, 23, 75)        0         
_________________________________________________________________
conv2d_2 (Conv2D)            (None, 19, 19, 100)       187600    
_________________________________________________________________
max_pooling2d_2 (MaxPooling2 (None, 9, 9, 100)         0         
_________________________________________________________________
dropout_2 (Dropout)          (None, 9, 9, 100)         0         
_________________________________________________________________
flatten_1 (Flatten)          (None, 8100)              0         
_________________________________________________________________
dense_1 (Dense)              (None, 500)               4050500   
_________________________________________________________________
dropout_3 (Dropout)          (None, 500)               0         
_________________________________________________________________
dense_2 (Dense)              (None, 64)                32064     
=================================================================
Total params: 4,272,114
Trainable params: 4,272,114
Non-trainable params: 0
_________________________________________________________________
None
2018-02-08 03:48:02.408053: I C:\tf_jenkins\workspace\rel-win\M\windows\PY\36\tensorflow\core\platform\cpu_feature_guard.cc:137] Your CPU supports instructions that this TensorFlow binary was not compiled to use: AVX
…
