…
ng.py
C:\Users\Alexander\AppData\Local\Programs\Python\Python36\lib\site-packages\h5py\__init__.py:36: FutureWarning: Conversion of the second argument of issubdtype from `float` to `np.floating` is deprecated. In future, it will be treated as `np.float64 == np.dtype(float).type`.
  from ._conv import register_converters as _register_converters
Using TensorFlow backend.
_________________________________________________________________
Layer (type)                 Output Shape              Param #   
=================================================================
conv2d_1 (Conv2D)            (None, 46, 46, 75)        1950      
_________________________________________________________________
max_pooling2d_1 (MaxPooling2 (None, 23, 23, 75)        0         
_________________________________________________________________
dropout_1 (Dropout)          (None, 23, 23, 75)        0         
_________________________________________________________________
conv2d_2 (Conv2D)            (None, 19, 19, 100)       187600    
_________________________________________________________________
max_pooling2d_2 (MaxPooling2 (None, 9, 9, 100)         0         
_________________________________________________________________
dropout_2 (Dropout)          (None, 9, 9, 100)         0         
_________________________________________________________________
conv2d_3 (Conv2D)            (None, 5, 5, 125)         312625    
_________________________________________________________________
max_pooling2d_3 (MaxPooling2 (None, 2, 2, 125)         0         
_________________________________________________________________
dropout_3 (Dropout)          (None, 2, 2, 125)         0         
_________________________________________________________________
flatten_1 (Flatten)          (None, 500)               0         
_________________________________________________________________
dense_1 (Dense)              (None, 500)               250500    
_________________________________________________________________
dropout_4 (Dropout)          (None, 500)               0         
_________________________________________________________________
dense_2 (Dense)              (None, 64)                32064     
=================================================================
Total params: 784,739
Trainable params: 784,739
Non-trainable params: 0
_________________________________________________________________
None
Train on 633 samples, validate on 71 samples
2018-02-08 22:44:46.168572: I C:\tf_jenkins\workspace\rel-win\M\windows\PY\36\tensorflow\core\platform\cpu_feature_guard.cc:137] Your CPU supports instructions that this TensorFlow binary was not compiled to use: AVX
…
